gnn/gsage_v0.pt (torch, 4833 bytes, 6 tensors)

conv1.convs.0.lin_l.weight f4 [32, 2]
00000000: 14ae bcbe 78a0 233f 58f9 c63e ee70 443d
00000010: 01a6 453e 7b2b bfbe b2c4 f5be ef8a 993d
00000020: a8d0 633e 7afc 213f 70f2 553d 9451 11be
00000030: 5abe bcbe 2c51 bf3e da48 30bf 0a35 3b3e
00000040: c546 e43d 8900 d93e 2faf 113f 6834 c53e
00000050: d258 ba3e 08a4 25bf c632 dcbe e870 853d
00000060: 45b7 053e b454 db3e 21b1 0ebf edd0 c43e
00000070: baeb 913e 2e05 9f3e 98fa 893e 30d7 b73e
00000080: d9ca b53e 8a6e 593e 843e 1a3f d182 8abe
00000090: 0d76 a9be 5242 a5be 1e0d 32bf 6814 f93d
000000a0: 571d 6fbe 4b59 f13e 2289 afbe 19ee e93d
000000b0: 9fdc 85be 043b a53e 2021 df3e 9bdc 93be
000000c0: d7a7 9c3c 4059 1d3f 4e77 aabe b7ee f5bd
000000d0: 49f1 27bf d600 2b3f 09d9 10bf 0bf6 a43e
000000e0: a0d7 ecbd b076 36bd 3345 1abf 401e 133d
000000f0: 6657 df3e ab71 27bf f55a c93e f2e1 5c3e
-0.3685156 0.6391673 0.3886211 0.04795926 0.19301607 -0.3733786 -0.4800163 0.074972026
0.22247565 0.63275874 0.05223316 -0.14191276 -0.36863977 0.37366617 -0.6886116 0.18281952
0.11146311 0.4238322 0.56907934 0.38516545 0.3639589 -0.64703417 -0.43007487 0.06515676
0.13058193 0.4283806 -0.5573903 0.38440648 0.28500158 0.3105864 0.26949 0.35906363
0.35506323 0.21233574 0.6025164 -0.2705293 -0.33097878 -0.3227716 -0.69551265 0.12162095
-0.23351036 0.47138438 -0.34284312 0.11422367 -0.26144883 0.32271588 0.4357996 -0.28879246
0.019123001 0.6146431 -0.33294147 -0.12008422 -0.65602547 0.6679815 -0.5658117 0.32218966
-0.11564565 -0.044546783 -0.6026184 0.03591752 0.43621367 -0.6540782 0.39327207 0.21570566

conv1.convs.0.lin_l.bias f4 [32]
00000000: 90b4 dc3e bf14 76bd a0c6 62be 6fd4 30bf
00000010: 5604 753d 1431 91be c68e 003f 4662 95bd
00000020: 4875 cabe 17e0 b8be d1a7 0bbf 2036 6abe
00000030: 1091 11bf e84e b1be f95c 043f 5433 a03b
00000040: fb3f 20be 00c5 923d 0f8f 223f c663 d23e
00000050: 87b5 6fbe f527 40be 65f9 493e b5bb 32bf
00000060: 3b9e 8cbe 4b58 a63e b69b 8f3d 5afa 30bf
00000070: ffd2 223f 2bbf abbe d996 d4be 0495 0abf
0.43106508 -0.06007838 -0.22146082 -0.6907415 0.05981859 -0.28357756 0.50217855 -0.07294135
-0.39542603 -0.36108467 -0.5455294 -0.2287221 -0.5686197 -0.34630513 0.51704365 0.0048889313
-0.15649407 0.07166481 0.6349954 0.41091746 -0.23409091 -0.18765242 0.19724043 -0.6981767
-0.2746447 0.32489237 0.070121214 -0.69132006 0.63603204 -0.33544287 -0.41521338 -0.5413363

conv1.convs.0.lin_r.weight f4 [32, 2]
00000000: 5821 01bf 0495 153f 57e7 b73d 353b e53e
00000010: 39fe c1be 7052 283f a9d2 5dbe 1bf0 113f
00000020: 1fe9 a9be 05da 553d 786f 0dbe 87b9 14bf
00000030: ad34 2ebe 0f2b c7bd ad64 2b3f 8504 613d
00000040: b5c8 e73e 7904 ce3e 71a8 1f3f 5806 213f
00000050: e6a9 ec3e f472 04bf 73a9 1fbf a064 43bd
00000060: 5413 373d a1a0 d7be 9903 843e f002 0abf
00000070: a9d1 1bbe f4dc 173f 3fd8 cebe 8a02 08bf
00000080: 7e6b eb3d 421d 263f 0249 bf3e 893e 2e3f
00000090: 5691 ae3e fc80 f7be 9afe e1be 9449 1ebe
000000a0: 0f38 c23e 6534 d5be 0d99 a93e e19c f6bd
000000b0: 5076 083f 11b3 2f3f dd06 92be 7200 2f3f
000000c0: e427 1dbf 79d0 b73e 2f54 eabe c40f 0a3f
000000d0: 6868 2a3f cdef 493d 06b0 e33e 6911 70bd
000000e0: c3e0 2c3f 2e5b ecbe 5c20 dfbe 5c49 2dbe
000000f0: 6752 333f ed67 2fbf 2a1e 043e 4562 013f
-0.50441504 0.58430505 0.089796714 0.44771734 -0.3788927 0.6575079 -0.21662392 0.57006997
-0.3318567 0.052209873 -0.13812053 -0.5809559 -0.17012282 -0.0972501 0.66950494 0.05493595
0.45270315 0.40237787 0.62366396 0.62900305 0.46223372 -0.51737905 -0.62367934 -0.047703385
0.044696167 -0.42114738 0.25783995 -0.5391073 -0.15216698 0.5932152 -0.40399358 -0.53128874
0.11495112 0.64888394 0.37360388 0.6806417 0.34095258 -0.48340595 -0.44139558 -0.15457755
0.37933394 -0.41641536 0.3312458 -0.12041641 0.5330553 0.6863261 -0.2852086 0.68360054
-0.61388993 0.3590124 -0.45767352 0.53930306 0.6656556 0.049300957 0.44470233 -0.058610354
0.6753046 -0.46163315 -0.43579376 -0.16922516 0.7004761 -0.68517953 0.12902132 0.5054057

conv2.convs.0.lin_l.weight f4 [2, 32]
00000000: 4a87 d83d fa05 0ebe c0f2 d3bd 08df 64bb
00000010: 26a4 ff3c f44a 26be 1f0b 9ebd a7c5 24bd
00000020: fa0a a53d 4fb8 94bd 1013 d1bc 22a2 cfbd
00000030: 7df7 b5bd 6a46 893d 8155 123e 660a f8bd
00000040: 94d2 18be d563 303d ed42 0e3e b025 373c
00000050: 8820 3c3b f846 2fbd cc55 183d 9ee7 c63b
00000060: 66da aa3d 6f3e 24be d49a 233e d957 84bc
00000070: d11a 303e feff 2fbe aab6 d93d 2fda 4bbd
00000080: 416f 1ebe ae35 503c 247b ee3d 4cb8 21be
00000090: b3a3 02bd d09a a0bd 2604 89bc 9478 f2bd
000000a0: 1175 18be bec4 3b3d 0000 2237 166c 66bd
000000b0: cc1f 03bb 32ff 23be 9145 203e 32a4 dabc
000000c0: e836 d33c dc3a ac3b 6a69 af3d 905a d0bc
000000d0: c1b5 18be 8f3a 123e 0731 fd3d 0ffe 27bc
000000e0: dee8 fbbd 7e61 bfbd 095b 8dbc 3d13 b2bd
000000f0: 2faf 013e 6dd4 cdbd 2084 30bc 6b79 073e
0.10572679 -0.13869467 -0.10349035 -0.0034922976 0.031206202 -0.1623953 -0.07716965 -0.04022756
0.08058734 -0.072617166 -0.025521785 -0.10138346 -0.08885095 0.067028835 0.1429043 -0.12111358
-0.14924079 0.043063957 0.13892718 0.011178419 0.0028705914 -0.04279229 0.037191197 0.0060700914
0.083424374 -0.16039442 0.15977031 -0.01615517 0.1719773 -0.17187497 0.106305435 -0.049768623
-0.15472127 0.012708111 0.11644581 -0.1579296 -0.031894397 -0.07842028 -0.016725611 -0.11839405
-0.14888407 0.045841925 9.655952e-06 -0.056255423 -0.0020007966 -0.16015318 0.15651537 -0.026689623
0.025783017 0.00525604 0.08565028 -0.025433809 -0.14913084 0.14280151 0.12362867 -0.010253443
-0.12300275 -0.09344767 -0.017255323 -0.08695076 0.12664483 -0.100502826 -0.010773689 0.13229911

conv2.convs.0.lin_l.bias f4 [2]
00000000: 08c6 bf3d df10 c2bd
0.09363943 -0.09475874

conv2.convs.0.lin_r.weight f4 [2, 32]
00000000: ac68 2cbd 8a2b 7a3d 0c47 b6bd cab4 093e
00000010: 929e 59bd 742f 653d 0e5f 3b3d 1400 89bd
00000020: 3375 d5bd e44a 19be 8288 9a3d 30d0 e4bc
00000030: 0762 ea3d 964a d93c a46f fabd 91a0 7dbd
00000040: a6b8 153e 2e52 123e 016f 08be abce 153e
00000050: aa22 d3bd 249e ac3c 0f17 99bd 1a05 ddbc
00000060: 2702 01be 572d 2d3e 537c d6bd c4c2 19be
00000070: 10e7 1bbe ff86 0ebe 8019 b53b 553a 3e3d
00000080: a208 5ebc 3e85 193e fbae 25be 0686 09be
00000090: 5203 0c3e 4fb0 cdbd 511a 3dbe 19c4 91bd
000000a0: d8e0 9ebc 318c 10bd a04f e6bc 0d48 b0bd
000000b0: d50e 06be 8dd4 babd f01d 6738 6d3c 19bd
000000c0: 10de 053e 812a c43d 8a31 c03d 9ec5 dc3d
000000d0: aaf8 f53d 8848 c1bd 8c97 613b 19e7 2f3d
000000e0: 3004 95bc 60b5 75bd 4a7e 2cbd 9b92 3bbe
000000f0: 0d91 003e 8cbf 653d e400 543d aff6 1cbe
-0.04209201 0.06107668 -0.0890027 0.13447872 -0.05312974 0.055953458 0.045744948 -0.06689468
-0.104227446 -0.14969975 0.07545568 -0.027931303 0.114444785 0.026524823 -0.12228325 -0.061920706
0.14621219 0.14289162 -0.13323595 0.14629619 -0.10309346 0.021071501 -0.07475101 -0.026979972
-0.12598477 0.16911827 -0.10472932 -0.15015703 -0.15224862 -0.13918684 0.0055267215 0.04644235
-0.013551863 0.14992234 -0.16180031 -0.13430032 0.13673142 -0.10043394 -0.1846707 -0.07117481
-0.019394323 -0.035289947 -0.02811414 -0.086074926 -0.13091595 -0.09122572 5.5102573e-05 -0.037411142
0.13072991 0.095784195 0.09384449 0.1077988 0.120103195 -0.09437662 0.0034422604 0.042945
-0.018190473 -0.059987426 -0.042112626 -0.18317644 0.12555332 0.056090876 0.051758662 -0.15328477
