gnn/gsage_v1.pt (torch, 106893 bytes, 14 tensors)

gcn1.bias f4 [64]
-0.008395168 -0.0025311075 0.0 0.0047306647 0.0 0.0 0.0047766264 0.0032750817
0.010337172 0.0030153177 0.0 0.0 0.0032413327 -0.0019364377 0.0 0.0
0.008778277 -0.0033952561 0.0 0.0 0.0 -0.008382914 0.0 -0.0055284943
0.005236939 0.0 -0.02252264 -0.0020233262 0.0 0.0 0.008547065 -0.003327557
0.011381669 -0.003769001 0.00826906 0.011638768 0.0 -0.002647914 -0.014070028 -0.018792968
0.0 0.0 0.0 -0.00029583945 0.015647845 -0.009304762 0.02539544 0.0022525627
0.0 -0.014130852 -0.0012309671 -0.0013132638 0.0 0.0 2.9988223e-05 -0.006764326
-0.0034106446 0.0 0.0 0.0 0.0 0.0047691264 -0.01061544 0.0
00000000: e38b 09bc f0e0 25bb 0000 0000 b103 9b3b
00000010: 0000 0000 0000 0000 3f85 9c3b c1a2 563b
00000020: 3e5d 293c a39c 453b 0000 0000 0000 0000
00000030: 8a6c 543b 11d0 fdba 0000 0000 0000 0000
00000040: c3d2 0f3c f282 5ebb 0000 0000 0000 0000
00000050: 0000 0000 7d58 09bc 0000 0000 5f28 b5bb
00000060: a19a ab3b 0000 0000 6681 b8bc c899 04bb
00000070: 0000 0000 0000 0000 fd08 0c3c 2413 5abb
00000080: 2e7a 3a3c 5801 77bb f47a 073c 88b0 3e3c
00000090: 0000 0000 a088 2dbb fa85 66bc b6f3 99bc
000000a0: 0000 0000 0000 0000 0000 0000 e61a 9bb9
000000b0: e92f 803c 0073 18bc 190a d03c bb9f 133b
000000c0: 0000 0000 1785 67bc 6758 a1ba d221 acba
000000d0: 0000 0000 0000 0000 388f fb37 47a7 ddbb
000000e0: 1f85 5fbb 0000 0000 0000 0000 0000 0000
000000f0: 0000 0000 5546 9c3b 62ec 2dbc 0000 0000

gcn1.lin.weight f4 [64, 2]
-0.009420851 0.12564787 0.099959806 0.13099805 -0.1861299 -0.07701285 -0.13451424 0.10008991
-0.000867635 -0.13119566 -0.22580096 -0.28182232 0.012306136 0.24619158 0.28501177 0.27090567
-0.23960829 0.13571036 0.21751048 0.3017671 -0.23359427 -0.09070337 0.17695269 -0.22791618
0.26826978 -0.014262896 0.018345006 0.2551698 -0.22399336 -0.17798746 -0.18742687 -0.20805539
0.09343316 0.26481837 0.23762941 -0.14121617 -0.0101358 -0.13473065 0.18118343 -0.21060985
-0.087980375 -0.048967183 0.043820433 0.14232509 -0.052615702 -0.28465012 0.2306074 -0.15588178
-0.08713291 0.20337842 0.21560818 -0.28304887 0.24381508 0.2345968 -0.07901486 0.13158922
-0.24822657 -0.19511542 -0.13185202 -0.2963043 -0.018540548 0.28498712 -0.2569938 0.25707027
0.19407135 -0.03530305 -0.16402775 0.16031206 0.010339297 0.12592186 0.21996059 0.2065244
-0.118631765 -0.06435323 -0.018618997 0.053778894 0.023348844 0.08394826 -0.25480404 0.15476993
0.2551456 -0.2119442 -0.17514224 -0.07998051 -0.03194192 -0.041441888 -0.28140834 0.22287725
0.31265962 0.033236403 0.27427754 -0.1268439 0.16427462 0.24965224 0.11604318 0.13132033
0.00038146973 -0.09317635 -0.10248565 0.18379207 0.27249834 0.04522009 0.01479148 0.14139384
0.2132693 -0.2999363 -0.016988963 -0.3001062 0.0077222283 0.18686818 -0.15955277 0.06533386
0.028074285 0.17080058 0.08661649 -0.12934098 -0.08769107 -0.009384453 0.22971183 -0.24973282
-0.29044908 0.0037232637 0.11770258 0.12165353 -0.28905103 0.07412599 -0.12210511 -0.28784752
00000000: ea59 1abc d6a9 003e bab7 cc3d 5a24 063e
00000010: d698 3ebe eab8 9dbd 1abe 09be f0fb cc3d
00000020: 0072 63ba 2858 06be 5e38 67be 044b 90be
00000030: ad9f 493c a519 7c3e 10ed 913e 26b4 8a3e
00000040: e05b 75be a8f7 0a3e 11bb 5e3e 3881 9a3e
00000050: 5633 6fbe b0c2 b9bd 1633 353e dc62 69be
00000060: a85a 893e ecae 69bc 4448 963c 9ea5 823e
00000070: 845e 65be 5842 36be d4ec 3fbe 790c 55be
00000080: e259 bf3d 4696 873e 2055 733e f99a 10be
00000090: a010 26bc d5f6 09be 2688 393e 1caa 57be
000000a0: 0e2f b4bd d091 48bd 0e7d 333d abbd 113e
000000b0: 9083 57bd a9bd 91be 5924 6c3e 799f 1fbe
000000c0: bd72 b2bd 6f42 503e 64c8 5c3e c8eb 90be
000000d0: a9aa 793e 253a 703e 8bd2 a1bd 53bf 063e
000000e0: 1b2f 7ebe 56cc 47be 3704 07be 32b5 97be
000000f0: 59e2 97bc d5e9 913e b194 83be b79e 833e
00000100: a4ba 463e ee99 10bd e4f6 27be d828 243e
00000110: 2866 293c a9f1 003e 593d 613e 227b 533e
00000120: 36f5 f2bd a0cb 83bd de86 98bc 4247 5c3d
00000130: 1346 bf3c 11ed ab3d ad75 82be 027c 1e3e
00000140: 72a2 823e e607 59be 7d58 33be d2cc a3bd
00000150: 88d5 02bd f8be 29bd c114 90be ef39 643e
00000160: ec14 a03e e522 083d 1b6e 8c3e 5ee3 01be
00000170: 9b37 283e d6a4 7f3e 0ca8 ed3d d678 063e
00000180: 0000 c839 3ed3 bebd ffe3 d1bd fd33 3c3e
00000190: e784 8b3e b338 393d f757 723c 8cc9 103e
000001a0: 4463 5a3e 4091 99be 702c 8bbc 85a7 99be
000001b0: bf0a fd3b 5f5a 3f3e cd61 23be c2cd 853d
000001c0: 0bfc e53c 59e6 2e3e fc63 b13d f671 04be
000001d0: 6097 b3bd 40c1 19bc 9439 6b3e f6b9 7fbe
000001e0: beb5 94be 0002 743b 0d0e f13d 7c25 f93d
000001f0: 7ffe 93be 5ecf 973d 3e12 fabd c060 93be

gcn2.bias f4 [64]
-0.010836206 0.010713396 0.0 -0.001771311 0.0 -0.0060965694 -0.0017780875 0.0
-0.0063524414 0.0 0.0 0.004914776 -0.0097560445 -0.011536145 -0.0067167194 -0.017067766
0.0022322775 -0.012443793 -0.009092842 0.0 0.0005789415 0.0 -0.006934925 0.016859807
0.029696023 0.022670073 0.0 0.013344045 0.017471243 -0.0027194791 0.024348566 0.0
0.0 0.0 0.021419903 0.0 0.0011303585 0.0059907716 -0.0052980455 -0.0038570932
0.009959973 -0.010533713 0.020608878 -0.00013588206 0.0 0.00075174513 -0.0068556564 0.0
0.0 -0.004188826 -0.004927398 -0.002770478 -0.0094630625 -0.0021851691 0.0 0.0021635913
0.0 -0.025168397 0.0 0.0049568005 -0.0040095546 0.0 0.0 0.0072868466
00000000: 588a 31bc 3d87 2f3c 0000 0000 562b e8ba
00000010: 0000 0000 bbc5 c7bb b70e e9ba 0000 0000
00000020: 2428 d0bb 0000 0000 0000 0000 210c a13b
00000030: d1d7 1fbc 1902 3dbc ed17 dcbb b3d1 8bbc
00000040: 674b 123b 0de1 4bbc 25fa 14bc 0000 0000
00000050: 1bc4 173a 0000 0000 5e3e e3bb 941d 8a3c
00000060: 1345 f33c 97b6 b93c 0000 0000 fba0 5a3c
00000070: da1f 8f3c 4a39 32bb a576 c73c 0000 0000
00000080: 0000 0000 0000 0000 cb78 af3c 0000 0000
00000090: 8a28 943a 3c4e c43b 3a9b adbb 49c7 7cbb
000000a0: 282f 233c 9895 2cbc f3d3 a83c 907b 0eb9
000000b0: 0000 0000 c310 453a 6aa5 e0bb 0000 0000
000000c0: 0000 0000 6b42 89bb 0376 a1bb e890 35bb
000000d0: f60a 1bbc 0e35 0fbb 0000 0000 0acb 0d3b
000000e0: 0000 0000 f42d cebc 0000 0000 a86c a23b
000000f0: 9562 83bb 0000 0000 0000 0000 80c6 ee3b

gcn2.lin.weight f4 [64, 64]
0.07981975 0.19408497 0.0102598965 -0.21469308 -0.13569659 0.10026543 -0.16134836 0.075659774
-0.090067685 0.20431532 -0.035398006 0.04732804 -0.0835422 0.11483229 0.21203662 0.12809299
0.18828571 -0.14234091 -0.17055437 0.061853573 0.14647447 -0.045005582 -0.0742933 0.04924064
-0.04099803 0.021552801 -0.1961344 0.063663915 -0.09796876 -0.16575077 0.123136036 0.053574894
-0.20045291 -0.09679898 -0.16339065 -0.16373384 -0.17476487 0.08319457 0.15321863 0.09330672
0.21097936 0.18894278 0.17768149 -0.21854784 0.020430876 -0.13707387 0.07949302 0.13108489
-0.10774114 0.089340314 0.14370693 -0.15250783 -0.072507024 0.10659711 -0.034902863 -0.22114375
-0.20457014 0.18041481 -0.17419732 0.062025174 -0.19006082 0.02981174 -0.0014812022 0.04967864
0.0001633089 0.20623963 -0.07458885 0.10009466 -0.16316459 0.051210538 0.10908821 -0.07743235
0.02785369 0.17173144 -0.054172784 0.15291284 -0.12250495 0.1472466 0.08630593 -0.09611287
-0.18402302 0.05441668 0.054172084 -0.20425124 0.17651044 0.16510226 0.16077931 0.078341074
0.2006438 -0.19013746 0.11741556 0.058251638 -0.21028534 0.1827227 0.06497401 0.0949657
-0.11847897 -0.09826693 0.17611715 -0.060658146 0.1583576 0.02578852 0.046161175 0.19803059
-0.105922386 0.19096379 -0.15498191 0.08277219 -0.204364 0.06800036 0.04113111 -0.12555282
0.108262554 0.0707369 -0.109347686 -0.046232067 -0.19435038 0.09398602 0.07479897 0.039467447
-0.11931619 -0.04966058 -0.21498555 -0.07447688 -0.07574628 -0.04232141 0.17232764 -0.16922498
-0.03749901 -0.03225416 -0.1879837 -0.15839463 0.097595766 0.08651699 -0.19741198 -0.17324716
0.016479671 0.042362794 0.15776663 0.057717398 0.048598036 -0.1305536 0.14848499 0.11696242
0.16538362 0.09536873 -0.21587786 0.06396504 0.022700801 0.18468012 0.056027308 -0.034557
-0.1529538 -0.14379382 0.18018202 -0.17851627 0.06803237 -0.093634196 -0.009217158 0.21057932
-0.06859295 0.011213273 -0.09554382 0.15049337 -0.04193203 0.20927833 -0.20917535 -0.018405288
0.21597089 0.019802928 0.14736561 -0.0852865 -0.21249977 0.097862914 -0.060125142 -0.03130719
-0.14982815 -0.13993704 -0.07840146 0.031157285 0.2150775 -0.07758047 -0.015733182 0.043133095
-0.066615686 -0.040607557 0.053083196 -0.067278236 0.0010699034 -0.083612576 0.124455824 -0.21174742
0.17023404 0.044329625 -0.012273535 0.06337145 -0.14134109 -0.19720146 -0.19981201 0.18337527
-0.10187881 -0.18983707 0.05660577 0.16322406 -0.1959955 0.15011203 -0.010056809 0.0025963634
0.18219218 -0.1850402 0.09807284 -0.02358006 0.0067369193 0.07549011 -0.1364404 -0.036669858
0.12516725 0.1689189 -0.061658647 -0.06456158 -0.19544822 0.006632 0.15929465 -0.05105765
0.21404253 0.08469822 0.18204153 -0.11916166 -0.12044012 -0.08169971 0.028647218 0.20300852
-0.00732556 0.000775218 0.06341858 0.1513452 -0.14272757 0.16369617 -0.041755155 -0.16325162
-0.096489534 0.132961 -0.14182158 0.0922531 -0.08370234 -0.07415502 -0.13238004 -0.059105344
0.09408062 -0.10446151 0.031605437 -0.06014076 0.1324118 0.15970214 -0.21542343 -0.032780707
00000000: 8978 a33d 36be 463e 2019 283c 81d8 5bbe
00000010: 0cf4 0abe f657 cd3d 8138 25be 83f3 9a3d
00000020: 6875 b8bd 0938 513e 80fd 10bd 0cdb 413d
00000030: 2c18 abbd 312d eb3d 2120 593e cf2a 033e
00000040: f8cd 403e d1c1 11be cea5 2ebe 2c5a 7d3d
00000050: 67fd 153e c657 38bd 1627 98bd 8eb0 493d
00000060: 8ded 27bd 808f b03c 75d7 48be 3a62 823d
00000070: d8a3 c8bd 92ba 29be bf2e fc3d 5971 5b3d
00000080: 8743 4dbe 8b3e c6bd e14f 27be d8a9 27be
00000090: 90f5 32be ea61 aa3d 58e5 1c3e 9817 bf3d
000000a0: f90a 583e 377a 413e 23f2 353e 01cb 5fbe
000000b0: a75e a73c 185d 0cbe 3dcd a23d 1e3b 063e
000000c0: 63a7 dcbd 0ef8 b63d e927 133e 032b 1cbe
000000d0: 907e 94bd 964f da3d 4ef6 0ebd 8273 62be
000000e0: d67a 51be a9be 383e c860 32be 1c0e 7e3d
000000f0: 4e9f 42be c037 f43c e624 c2ba d47b 4b3d
00000100: e63d 2b39 7b30 533e 0ac2 98bd 6efe cc3d
00000110: 9e14 27be 24c2 513d a469 df3d da94 9ebd
00000120: 6c2d e43c 5eda 2f3e 48e4 5dbd 2f95 1c3e
00000130: e0e3 fabd d0c7 163e 2ac1 b03d d3d6 c4bd
00000140: 8870 3cbe 06e4 5e3d 8ce3 5d3d 3d27 51be
00000150: 27bf 343e 9110 293e 55a3 243e 4971 a03d
00000160: 9175 4d3e 65b3 42be 9277 f03d 4599 6e3d
00000170: 0a55 57be a91b 3b3e 1811 853d 607d c23d
00000180: 1aa5 f2bd 2c40 c9bd 0e58 343e ad74 78bd
00000190: 7f28 223e 7242 d33c 8013 3d3d 88c8 4a3e
000001a0: d6ed d8bd 038c 433e 94b3 1ebe 7784 a93d
000001b0: cc44 51be c643 8b3d 1879 283d eb90 00be
000001c0: c2b8 dd3d 82de 903d aef1 dfbd d65d 3dbd
000001d0: c903 47be be7b c03d 3430 993d 9ea8 213d
000001e0: 0c5c f4bd e468 4bbd 2c25 5cbe 5687 98bd
000001f0: de20 9bbd 3759 2dbd a876 303e 5049 2dbe
00000200: 9098 19bd f01c 04bd cd7e 40be 3432 22be
00000210: 4ae0 c73d d22f b13d 5e26 4abe b467 31be
00000220: 6000 873c 9c84 2d3d 938d 213e 1469 6c3d
00000230: bc0e 473d d8af 05be 730c 183e fe89 ef3d
00000240: 535a 293e ae50 c33d 160f 5dbe 1a00 833d
00000250: 08f7 b93c c91c 3d3e e47c 653d a48b 0dbd
00000260: ec9f 1cbe b03e 13be a381 383e f8cc 36be
00000270: 8e54 8b3d 49c3 bfbd 9003 17bc 1ba2 573e
00000280: 767a 8cbd e0b7 373c 7aac c3bd ef1a 1a3e
00000290: ecc0 2bbd 0f4d 563e 1032 56be b0c6 96bc
000002a0: 7927 5d3e c039 a23c 03e7 163e b0aa aebd
000002b0: 8a99 59be 5a6c c83d c845 76bd f83b 00bd
000002c0: 8d6c 19be a84b 0fbe f290 a0bd 903d ff3c
000002d0: 473d 5c3e 82e2 9ebd e0e2 80bc 54ac 303d
000002e0: ce6d 88bd 1c54 26bd c46d 593d 2cc9 89bd
000002f0: 003c 8c3a 123d abbd b2e2 fe3d 51d4 58be
00000300: d551 2e3e fb92 353d f016 49bc e4c8 813d
00000310: b8bb 10be 2eef 49be 859b 4cbe bac6 3b3e
00000320: d6a5 d0bd a664 42be 74db 673d 3524 273e
00000330: 0bb3 48be f8b6 193e 50c5 24bc c027 2a3b
00000340: 9690 3a3e 2e7b 3dbe 6ada c83d f82a c1bc
00000350: 60c1 dc3b 8f9a 9a3d 08b7 0bbe 2233 16bd
00000360: d82b 003e 13f9 2c3e c78d 7cbd dd38 84bd
00000370: 9423 48be 4051 d93b 231e 233e d421 51bd
00000380: f72d 5b3e 4376 ad3d 1869 3a3e 070b f4bd
00000390: 4fa9 f6bd 2d52 a7bd 92ad ea3c 77e1 4f3e
000003a0: 400b f0bb 0038 4b3a 9ae1 813d 3cfa 1a3e
000003b0: 2d27 12be f89f 273e 7407 2bbd 6f2b 27be
000003c0: 4e9c c5bd ee26 083e ad39 11be 31ef bc3d
000003d0: 226c abbd 96de 97bd a28e 07be 7218 72bd
000003e0: 57ad c03d ebef d5bd b474 013d 2856 76bd
000003f0: f596 073e f588 233e f697 5cbe 1045 06bd

lstm.weight_ih_l0 f4 [128, 64]
0.12419587 0.10129215 -0.15751624 0.11879652 -0.148704 -0.022408184 -0.14027275 -0.13026693
-0.047641154 0.012778908 -0.002166018 0.1628019 -0.15564425 -0.12037306 0.025186813 0.13831641
-0.093848705 -0.08738877 0.10976627 0.13663529 -0.15324299 -0.017034367 0.03132593 -0.038218793
0.09050647 0.11568359 -0.06088222 0.055599328 -0.02190989 -0.10787554 -0.047743924 0.15198614
-0.07058402 -0.06758553 0.13865577 -0.14976984 0.035383914 0.13780555 0.023180114 -0.16718785
0.17057697 0.18595076 -0.013646765 0.15576656 -0.044189468 -0.055864684 0.039234992 0.011887535
0.042950034 0.07976921 0.17647183 -0.095110536 -0.009718503 -0.13470979 -0.13953188 -0.10654557
-0.052221127 -0.15313815 0.064380065 -0.092028156 -0.032737356 0.04118158 -0.15281382 0.026804185
-0.11910979 -0.084445626 -0.149957 -0.059633415 -0.13021314 0.13181946 -0.105397284 0.03204532
-0.17719355 0.1731297 0.12717675 -0.15074095 0.11794816 -0.010850296 -0.12877636 -0.117743894
-0.039891817 0.14151421 -0.006592612 -0.1334423 0.08192809 -0.1674359 -0.018724587 0.13770679
-0.07153652 -0.15227938 0.12361644 -0.16316406 -0.17686619 -0.040315334 0.07792632 0.03685373
-0.16439879 0.08255027 -0.17180285 -0.1547553 -0.15679143 -0.02834324 -0.00822663 -0.015608251
-0.12215205 0.022926623 -0.11575577 0.15601665 0.15216254 -0.16888504 0.13399328 0.16237114
-0.10075853 -0.002684687 0.091471165 -0.12467312 -0.12492786 -0.019245544 -0.1593452 -0.18703574
-0.11518805 -0.1325723 0.109441176 -0.013094268 -0.15553969 -0.16330469 0.116787866 0.11862292
-0.10968388 -0.11873217 0.0850776 -0.04591729 0.10544546 -0.17543697 0.11342497 0.09122439
0.066969484 0.110968575 0.13943623 0.08910848 -0.12414977 0.070292756 -0.095652275 0.058693863
-0.04841509 -0.052239943 0.099826016 -0.14316618 0.013770316 0.028479844 0.1402956 0.19922169
-0.10749957 0.07590014 -0.15679011 -0.09071423 0.11272814 -0.013144407 -0.03353236 -0.14413737
0.11238526 -0.0054245144 -0.09292946 -0.16134426 0.017145317 0.12057692 0.10540378 -0.14722401
-0.097113594 -0.13155687 -0.07917821 0.072484575 0.06159152 0.15523487 -0.079760276 0.1547295
-0.030995846 -0.06842482 0.1594039 -0.03399336 -0.022866229 0.104865536 -0.1278731 -0.014571085
0.074992016 -0.10381954 0.075982645 -0.06410968 0.05949294 0.05946824 0.10748027 0.19067101
-0.09204401 0.17930835 -0.14687252 -0.1279608 0.06571621 0.10804185 0.047856428 0.115854636
-0.13588628 0.15939344 -0.06254377 -0.044231202 -0.088848576 -0.15322419 0.14421959 -0.13145028
0.11255176 0.023711821 0.0067029228 -0.04785408 0.09787348 0.045868605 0.045973152 -0.038690686
-0.07056358 0.14676145 0.108333334 -0.12337197 0.06802617 0.020632543 -0.15718694 0.077158794
-0.03573443 0.15246324 0.039272424 0.14507838 0.061825313 0.14234428 -0.06907521 0.08096338
0.16935478 -0.081797205 -0.094743066 -0.0754441 0.06782861 0.12500915 0.0061054775 0.0021946132
0.061583772 0.18258299 0.0034553194 -0.027048634 -0.10462962 0.12990491 0.113759354 -0.09797982
0.13689159 -0.09738726 -0.039904505 0.069198914 0.18587065 0.097490326 -0.10296553 0.050565306
00000000: 675a fe3d 4272 cf3d f04b 21be 974b f33d
00000010: dd45 18be 5e91 b7bc a9a3 0fbe b264 05be
00000020: 5f23 43bd a05e 513c c0f3 0dbb 8bb5 263e
00000030: 3561 1fbe 2786 f6bd 9354 ce3c d1a2 0d3e
00000040: c033 c0bd e2f8 b2bd 23cd e03d 1fea 0b3e
00000050: bbeb 1cbe a88b 8bbc 9e4f 003d 4f8b 1cbd
00000060: 755b b93d 85eb ec3d a25f 79bd 1fbc 633d
00000070: 5f7c b3bc daed dcbd 228f 43bd 41a2 1b3e
00000080: 5b8e 90bd 486a 8abd c7fb 0d3e 445d 19be
00000090: b9ee 103d e61c 0d3e 39e4 bd3c 4b33 2bbe
000000a0: bbab 2e3e e069 3e3e ae96 5fbc 4581 1f3e
000000b0: 0400 35bd 5ed2 64bd dfb4 203d f0c3 423c
000000c0: 60ec 2f3d 0a5e a33d 08b5 343e 50c9 c2bd
000000d0: 5b3a 1fbc 5df1 09be 72e1 0ebe 9034 dabd
000000e0: d2e5 55bd 3fd0 1cbe b2d9 833d 4279 bcbd
000000f0: 9b17 06bd 04ae 283d 3a7b 1cbe 7394 db3c
00000100: d5ef f3bd d4f1 acbd 548e 19be 2b42 74bd
00000110: 9856 05be aefb 063e 88da d7bd f441 033d
00000120: 3a72 35be e948 313e 9f3a 023e d65b 1abe
00000130: ce8e f13d 71c5 31bc f3dd 03be b623 f1bd
00000140: 9a65 23bd 1ae9 103e d606 d8bb 19a5 08be
00000150: eac9 a73d 5174 2bbe 4e64 99bc 0203 0d3e
00000160: bd81 92bd 20ef 1bbe 9e2a fd3d 7b14 27be
00000170: 691c 35be b121 25bd d697 9f3d f0f3 163d
00000180: 2858 28be 1e10 a93d 16ed 2fbe 2c78 1ebe
00000190: ef8d 20be 1530 e8bc fdc8 06bc c0b9 7fbc
000001a0: db2a fabd 9dd0 bb3c 5c11 edbd d4c2 1f3e
000001b0: 7fd0 1b3e 33f0 2cbe 8935 093e 9f44 263e
000001c0: 7d5a cebd 93f1 2fbb 3c55 bb3d 9f54 ffbd
000001d0: 2eda ffbd d5a8 9dbc 632b 23be 4c86 3fbe
000001e0: b6e7 ebbd 08c1 07be b222 e03d 5789 56bc
000001f0: cc45 1fbe 5839 27be 7a2e ef3d 93f0 f23d
00000200: f1a1 e0bd da29 f3bd 2a3d ae3d c513 3cbd
00000210: caf3 d73d c0a5 33be 5a4b e83d dad3 ba3d
00000220: 4c27 893d 7e43 e33d 5fc8 0e3e 827e b63d
00000230: 3c42 febd a6f5 8f3d 57e5 c3bd fa68 703d
00000240: e74e 46bd 8df9 55bd 9571 cc3d 289a 12be
00000250: e49c 613c 904e e93c a6a9 0f3e c500 4c3e
00000260: bc28 dcbd 8871 9b3d 968d 20be 62c8 b9bd
00000270: 03de e63d a45b 57bc 3a59 09bd bf98 13be
00000280: 3e2a e63d 20c0 b1bb cd51 bebd 6e37 25be
00000290: 5674 8c3c 08f1 f63d f0dd d73d e4c1 16be
000002a0: 7ee3 c6bd d8b6 06be 2f28 a2bd cb72 943d
000002b0: 6447 7c3d e4f5 1e3e 5b59 a3bd 6971 1e3e
000002c0: 00eb fdbc 5022 8cbd c73a 233e 9f3c 0bbd
000002d0: f551 bbbc bec3 d63d 2af1 02be 8fbb 6ebc
000002e0: 6a95 993d 579f d4bd ca9c 9b3d f04b 83bd
000002f0: deae 733d f894 733d 9e1e dc3d 433f 433e
00000300: 9281 bcbd 9c9c 373e c065 16be 2808 03be
00000310: 3896 863d 0c45 dd3d 1a05 443d 3245 ed3d
00000320: c625 0bbe 0938 233e f316 80bd c72b 35bd
00000330: 3ef6 b5bd cde6 1cbe 4dae 133e e79a 06be
00000340: 8a81 e63d 4b3f c23c 31a4 db3b a402 44bd
00000350: e471 c83d b8e0 3b3d 584e 3c3d 207a 1ebd
00000360: a383 90bd a248 163e dedd dd3d 72aa fcbd
00000370: 4e51 8b3d 9405 a93c 9df5 20be 6e05 9e3d
00000380: 445e 12bd 531f 1c3e 1fdc 203d 6d8f 143e
00000390: 8a3c 7d3d b3c2 113e 4e77 8dbd 21d0 a53d
000003a0: 576b 2d3e 4b85 a7bd a708 c2bd 7082 9abd
000003b0: bae9 8a3d 6602 003e 7510 c83b 80d3 0f3b
000003c0: 443f 7c3d 09f7 3a3e a472 623b 1995 ddbc
000003d0: 0e48 d6bd cb05 053e aafa e83d a5a9 c8bd
000003e0: 4f2d 0c3e f972 c7bd e872 23bd 29b8 8d3d
000003f0: e054 3e3e 02a9 c73d 97df d2bd 911d 4f3d

lstm.weight_hh_l0 f4 [128, 32]
-0.17461582 0.09958905 -0.12803009 -0.0891879 0.049834095 0.072812825 -0.026414283 0.0652622
0.09957356 -0.07723757 0.09904368 -0.021940524 0.016938124 0.09521849 -0.085461274 0.029082721
-0.12137055 0.059524514 -0.0012901765 -0.0029074291 -0.09036118 0.13829283 -0.11936102 0.1330266
0.061710805 0.14300503 -0.14960605 -0.08066943 -0.053134453 -0.11340659 0.15491249 -0.16414684
0.018316332 -0.09325036 0.032196015 0.09658784 0.13160674 0.0042866855 0.030141614 -0.02971181
-0.1289722 0.03704064 -0.075434215 -0.098521836 -0.07655516 -0.09002963 0.14739543 -0.16109714
-0.15602052 0.10869567 0.042860504 0.059109334 -0.020441474 -0.13943844 0.15167794 0.17733596
0.17307575 0.15806146 0.12667415 -0.031235158 -0.11699684 -0.18068507 -0.11908712 0.13340786
-0.102174714 0.038487494 -0.14215492 -0.019986302 -0.005060199 -0.12293163 0.093656525 0.0011653624
0.040306807 0.090656556 0.119457476 -0.124787174 -0.06149899 -0.059558325 -0.124793656 -0.022440836
0.002931831 -0.09014314 -0.16280879 -0.071346045 -0.12925626 0.0059699537 0.014966337 0.018021882
-0.1065077 0.090948835 0.091754146 0.0011021572 0.016667131 -0.15150407 0.068119995 0.012981595
-0.05901364 -0.10249529 0.117668755 0.10136942 -0.04516355 -0.06118389 0.104195826 0.004705552
-0.09638646 -0.028604753 -0.059110403 -0.08476637 0.026247706 0.070575446 0.05126054 0.009413685
-0.13905036 0.042150646 -0.018688822 0.061456285 -0.06548562 -0.044662282 0.10944547 -0.12786998
0.04042976 -0.03438987 0.19232152 0.0017769838 0.019458115 0.0118378 -0.008289175 0.16148724
-0.16794895 0.111100584 -0.0717792 0.0985603 -0.0893331 -0.07964288 0.07025584 -0.0841251
0.10262836 0.1577458 0.17598096 0.07037417 -0.07264602 0.0077620633 0.1544287 0.11079748
-0.14583592 0.18242604 -0.15966147 0.032921955 -0.13854435 -0.17777056 -0.09288514 0.13608116
0.14556685 0.024326252 0.078703776 -0.036608886 0.11314478 -0.17789853 0.06943491 -0.12315953
0.057995565 -0.030286347 -0.11640059 0.074934006 -0.13449736 -0.15084323 0.019560989 0.14423956
0.1848477 -0.04778865 -0.055270325 0.09733883 -0.06057158 -0.10393476 -0.10157914 0.030677715
-0.10130368 0.049582973 -0.101363555 0.1194884 -0.11485405 0.060232658 0.081039004 -0.14055283
-0.027522024 -0.0013945684 0.009347981 0.09876758 -0.011507258 -0.12794007 -0.15947191 0.047598213
-0.012602273 0.0611674 0.029674735 0.101052396 0.08571199 -0.120081544 0.072397016 0.02600294
0.009665711 -0.049172506 -0.023406914 -0.03323169 0.007439884 0.17496745 0.057155434 -0.13206255
0.053286362 -0.15091844 -0.04169245 0.0504774 -0.08896887 0.053765185 0.100568295 0.011966348
0.06559416 0.13118036 0.049819916 -0.070246816 0.06359601 -0.12244525 0.027571522 -0.042380024
0.123797216 0.08117892 0.0014578328 0.05364424 -0.12039064 0.08845108 -0.041916084 -0.16080397
-0.14009935 0.08819517 -0.009596434 -0.00021647749 0.14167733 -0.088869624 -0.16084555 0.12921299
0.077838525 0.048642352 -0.031292193 -0.08980737 0.11587574 -0.10211919 -0.113168366 0.1361922
-0.016678292 -0.12588851 -0.052941497 0.13107511 0.010116214 0.05912345 0.006251299 -0.13826615
00000000: 7dce 32be 58f5 cb3d 521a 03be 25a8 b6bd
00000010: d61e 4c3d e41e 953d c462 d8bc 30a8 853d
00000020: 39ed cb3d bb2e 9ebd 6ad7 ca3d 9dbc b3bc
00000030: d2c1 8a3c e901 c33d 5206 afbd e33e ee3c
00000040: 1f91 f8bd facf 733d 241b a9ba 918a 3ebb
00000050: 480f b9bd a39c 0d3e 8d73 f4bd 2038 083e
00000060: 78c4 7c3d e96f 123e 5432 19be 0436 a5bd
00000070: 83a3 59bd b741 e8bd 61a1 1e3e 1c16 28be
00000080: 220c 963c 0bfa bebd f8df 033d d8cf c53d
00000090: ebc3 063e 5377 8c3b 8ceb f63c 2f66 f3bc
000000a0: 4a11 04be edb7 173d 417d 9abd d1c5 c9bd
000000b0: f4c8 9cbd 7461 b8bd d4ee 163e a6f6 24be
000000c0: d8c3 1fbe d69b de3d 7f8e 2f3d a11c 723d
000000d0: e174 a7bc f3c8 0ebe 7651 1b3e 8f97 353e
000000e0: c53a 313e ddda 213e deb6 013e e0e0 ffbc
000000f0: 0a9c efbd 8205 39be f3e3 f3bd 129c 083e
00000100: fa40 d1bd 10a5 1d3d 0f91 11be 50ba a3bc
00000110: 07d0 a5bb 94c3 fbbd fece bf3d 13bf 983a
00000120: c018 253d 25aa b93d 1fa6 f43d 6b90 ffbd
00000130: 5de6 7bbd 6ef3 73bd d193 ffbd d8d5 b7bc
00000140: f623 403b f79c b8bd 59b7 26be e01d 92bd
00000150: c15b 04be 9a9f c33b 5e35 753c a0a2 933c
00000160: b620 dabd 6243 ba3d 99e9 bb3d 4276 903a
00000170: 8289 883c e223 1bbe 7f82 8b3d c1b0 543c
00000180: 49b8 71bd 0de9 d1bd 51fc f03d c59a cf3d
00000190: 6afd 38bd f59b 7abd 9f64 d53d 0831 9a3b
000001a0: 4466 c5bd 8454 eabc c01d 72bd fe99 adbd
000001b0: 6e05 d73c dc89 903d 92f6 513d db3b 1a3c
000001c0: 3863 0ebe 28a6 2c3d 4d19 99bc 96b9 7b3d
000001d0: 531d 86bd ccef 36bd f224 e03d 59f0 02be
000001e0: ad99 253d 64dc 0cbd efef 443e afe9 e83a
000001f0: a066 9f3c 55f3 413c 52cf 07bc e95c 253e
00000200: cffa 2bbe b488 e33d f900 93bd fcd9 c93d
00000210: 46f4 b6bd ce1b a3bd 4be2 8f3d c849 acbd
00000220: d12e d23d 1d88 213e 5a34 343e 5520 903d
00000230: 70c7 94bd e858 fe3b 8f22 1e3e cae9 e23d
00000240: 0356 15be e4cd 3a3e 4c7e 23be 2cd9 063d
00000250: 92de 0dbe 7c09 36be 903a bebd dc58 0b3e
00000260: 7a0f 153e d947 c73c 722f a13d 33f3 15bd
00000270: 73b8 e73d 082b 36be e433 8e3d 103b fcbd
00000280: c28c 6d3d 131b f8bc 6f63 eebd 0077 993d
00000290: adb9 09be a676 1abe 5e3e a03c 89b3 133e
000002a0: b748 3d3e 08be 43bd 2363 62bd 9559 c73d
000002b0: e819 78bd bfdb d4bd b908 d0bd d54f fb3c
000002c0: 4e78 cfbd 8417 4b3d b297 cfbd 56b6 f43d
000002d0: 9a38 ebbd 85b6 763d c7f7 a53d 15ed 0fbe
000002e0: de75 e1bc f3c9 b6ba 4628 193c a846 ca3d
000002f0: f088 3cbc b902 03be 9b4c 23be 58f6 423d
00000300: c479 4ebc ab8a 7a3d 6e18 f33c 8ff4 ce3d
00000310: c589 af3d 50ed f5bd e344 943d 1e04 d53c
00000320: ee5c 1e3c 1c69 49bd dbbf bfbc f41d 08bd
00000330: 45ca f33b ab2a 333e d11b 6a3d 683b 07be
00000340: cd42 5a3d 5d8a 1abe b4c5 2abd 64c1 4e3d
00000350: 5035 b6bd e238 5c3d c0f6 cd3d 800e 443c
00000360: 3b56 863d 2554 063e f80f 4c3d 90dd 8fbd
00000370: a03e 823d 93c4 fabd acdd e13c ad96 2dbd
00000380: 6589 fd3d 2241 a63d c014 bf3a 10ba 5b3d
00000390: 5e8f f6bd d725 b53d 33b0 2bbd cca9 24be
000003a0: 3476 0fbe ab9f b43d 5d3a 1dbc 3cfe 62b9
000003b0: dd13 113e 4701 b6bd b2b4 24be 6950 043e
000003c0: ce69 9f3d 343d 473d 3e2c 00bd edec b7bd
000003d0: 4350 ed3d de23 d1bd d1c4 e7bd f875 0b3e
000003e0: eaa0 88bc ebe8 00be 2fd9 58bd 8e38 063e
000003f0: 7abe 253c 6e2b 723d b2d7 cc3b a495 0dbe

lstm.bias_ih_l0 f4 [128]
-0.04000588 -0.1398654 -0.11388386 -0.044324867 0.16522537 0.1394527 -0.11698525 0.051138625
-0.11523001 0.12837604 -0.1323139 0.18692292 0.014589381 -0.098033525 0.15969545 -0.045704518
-0.10612406 -0.03455251 -0.039678596 -0.10094971 0.145696 -0.16914363 0.09537268 -0.09733618
0.01118886 0.15893388 0.04653294 -0.10635407 -0.13073492 0.042164613 -0.07353658 -0.17520562
0.15236934 -0.056908514 0.10360619 0.18358772 -0.06496872 0.081819735 -0.12739697 0.11945196
-0.11761584 -0.15575565 0.16333233 0.124223545 0.10533846 0.056271993 -0.022798732 -0.025010165
-0.015304228 0.0533752 0.06616666 -0.11581323 -0.088410854 -0.023165204 -0.002412312 -0.15255488
0.16669609 -0.017153898 -0.025794867 0.16189815 -0.06941574 0.16532801 0.0073395893 -0.095943786
-0.12877911 -0.024983555 -0.16093184 0.15680896 0.06335044 -0.16041069 0.08446325 -0.12838538
0.096096195 -0.10235919 -0.084234945 -0.0933633 -0.111658715 -0.019823432 -0.11600288 0.06865479
0.03455054 0.18359075 0.1469963 -0.013404262 0.14307079 0.17135617 -0.04842774 0.10744227
-0.10757842 0.13982305 -0.06805553 -0.17524691 -0.014180133 0.05824861 0.085495755 -0.15725106
0.16032693 0.14973263 -0.16311666 -0.1129327 0.13984355 0.14770116 -0.15893295 -0.14060183
-0.13105787 -0.0058936966 -0.119599365 0.13412964 0.09780415 0.061659966 -0.07747536 0.047603875
0.08944381 -0.07627592 0.017765991 -0.09095533 0.06279868 -0.05941592 0.18606603 -0.118705824
0.11155233 -0.0006828668 0.062024962 0.090361334 -0.14600141 -0.0643991 0.013134549 -0.13375731
00000000: 35dd 23bd e038 0fbe f13b e9bd fe8d 35bd
00000010: d730 293e b0cc 0e3e f695 efbd bc76 513d
00000020: b6fd ebbd 0275 033e 4c7d 07be b968 3f3e
00000030: 4d08 6f3c cdc5 c8bd 3487 233e a934 3bbd
00000040: 9257 d9bd ef86 0dbd 0686 22bd b9be cebd
00000050: 5531 153e fd33 2dbe c052 c33d 3158 c7bd
00000060: 7b51 373c 90bf 223e 5399 3e3d 2ad0 d9bd
00000070: 60df 05be cdb4 2c3d 599a 96bd 1a69 33be
00000080: b506 1c3e e718 69bd 7b2f d43d 6bfe 3b3e
00000090: 520e 85bd 1b91 a73d 5a74 02be 3ba3 f43d
000000a0: 93e0 f0bd 697e 1fbe 9740 273e ea68 fe3d
000000b0: b1bb d73d 767d 663d 68c4 babc 1ee2 ccbc
000000c0: 96be 7abc f49f 5a3d 6382 873d 7d2f edbd
000000d0: c010 b5bd f4c4 bdbc e117 1ebb 5937 1cbe
000000e0: 61b2 2a3e 5586 8cbc c24f d3bc a1c8 253e
000000f0: d729 8ebd bf4b 293e f080 f03b 2d7e c4bd
00000100: acde 03be 50aa ccbc 51cb 24be 8792 203e
00000110: e0bd 813d b342 24be 12fb ac3d 7577 03be
00000120: 15ce c43d b2a1 d1bd 5f83 acbd 4235 bfbd
00000130: 53ad e4bd c064 a2bc eb92 edbd e29a 8c3d
00000140: de84 0d3d 37ff 3b3e 3386 163e 8d9d 5bbc
00000150: 2681 123e fe77 2f3e 2a5c 46bd b10a dc3d
00000160: 1352 dcbd c62d 0f3e b360 8bbd ed73 33be
00000170: ca53 68bc 1896 6e3d 6618 af3d 6c06 21be
00000180: be2c 243e 8353 193e 0e08 27be 4249 e7bd
00000190: 2633 0f3e f93e 173e 52bf 22be edf9 0fbe
000001a0: 0934 06be e91f c1bb 83f0 f4bd 4859 093e
000001b0: 8b4d c83d 298f 7c3d 67ab 9ebd 48fc 423d
000001c0: 512e b73d 8d36 9cbd fc89 913c ca46 babd
000001d0: 989c 803d 1c5e 73bd 1888 3e3e 0a1c f3bd
000001e0: 8c75 e43d 6a02 33ba e30d 7e3d 5d0f b93d
000001f0: 6581 15be ade3 83bd 4b32 573c adf7 08be

lstm.bias_hh_l0 f4 [128]
-0.024283094 0.12651981 0.19307886 0.14698333 -0.0013298925 -0.13642827 0.095428176 0.09720717
0.1345152 -0.11064675 0.04836431 -0.06902143 0.13542473 0.12287276 -0.04990608 0.082096085
-0.110853754 0.12949395 -0.100036174 -0.06894515 0.13401793 0.114844404 -0.082924224 0.026595423
0.03440353 -0.0055778082 -0.0442422 -0.13472977 -0.09187293 -0.1197989 -0.18551536 0.040716533
-0.14945097 -0.02275856 -0.037680633 0.018653706 0.13030905 -0.079712525 -0.0615595 -0.09770172
-0.15562257 0.0911275 -0.14968975 -0.023420274 0.008213743 -0.008416972 0.005869891 0.08867769
0.1010531 0.05814981 0.041438546 -0.007999541 0.0026813168 -0.12168537 0.0913401 0.024420647
0.111182384 -0.058595862 0.06022266 0.047910627 0.040306643 0.11489232 -0.103840046 -0.12511858
0.14449412 0.15239702 -0.0872299 0.13437726 0.068115175 -0.15404643 -0.12398942 -0.007855015
0.1449704 -0.000694961 0.08414561 0.052111506 -0.016590834 -0.123415075 0.05764983 -0.0032249123
-0.1573904 0.01791204 -0.11409394 -0.09038691 -0.17457116 -0.1278303 0.06009773 -0.029826427
0.017401353 -0.103233136 -0.09024022 0.053649593 -0.1354669 0.0057055503 0.0038115084 -0.12934408
-0.03345555 -0.023446763 0.11542565 0.1828362 0.052205 0.034959238 -0.1476254 0.20361869
0.081533894 0.0054423064 -0.10493571 0.028597526 0.15813433 -0.08620573 -0.14668559 0.080760874
-0.10098483 0.14804009 -0.035767484 -0.114895284 -0.1567002 -0.07599776 0.1647079 0.06418274
0.10529593 -0.17777368 0.121906824 -0.026478361 0.06791632 0.12203628 -0.05257867 0.14090545
00000000: 57ed c6bc 698e 013e 77b6 453e cc82 163e
00000010: ca4f aeba dab3 0bbe d96f c33d 8e14 c73d
00000020: 5abe 093e c39a e2bd a819 463d 1c5b 8dbd
00000030: c8ac 0a3e b7a4 fb3d 516a 4cbd fe21 a83d
00000040: 4b07 e3bd 109a 043e c4df ccbd 1d33 8dbd
00000050: ff3b 093e 8b33 eb3d 2dd4 a9bd a5de d93c
00000060: b7ea 0c3d 0cc6 b6bb 4f37 35bd 9af6 09be
00000070: e027 bcbd 2059 f5bd bdf7 3dbe 61c6 263d
00000080: ad09 19be 2970 babc 0257 1abd a8cf 983c
00000090: bc6f 053e 5240 a3bd d025 7cbd d717 c8bd
000000a0: 865b 1fbe 0ea1 ba3d 4548 19be e0db bfbc
000000b0: ef92 063c 57e7 09bc 3758 c03b a69c b53d
000000c0: edf4 ce3d 7f2e 6e3d 77bb 293d 8210 03bc
000000d0: 08b9 2f3b 2e36 f9bd 8510 bb3d cf0d c83c
000000e0: 97b3 e33d 3702 70bd 09ac 763d ef3d 443d
000000f0: 9418 253d aa4c eb3d 17aa d4bd 161f 00be
00000100: 44f6 133e f70d 1c3e 97a5 b2bd 319a 093e
00000110: f87f 8b3d 59be 1dbe 2aee fdbd 52b2 00bc
00000120: 1f73 143e 0b2e 36ba 8954 ac3d e072 553d
00000130: 80e9 87bc 0bc1 fcbd 3a22 6c3d 0d59 53bb
00000140: f32a 21be 45bc 923c 15aa e9bd c61c b9bd
00000150: c8c2 32be f2e5 02be 0a29 763d 8d56 f4bc
00000160: 488d 8e3c e56b d3bd ddcf b8bd adbf 5b3d
00000170: d6b7 0abe a0f5 ba3b 80ca 793b c672 04be
00000180: b008 09bd 6d13 c0bc 4864 ec3d 6a39 3b3e
00000190: e9d4 553d 6b31 0f3d 1d2b 17be 6b81 503e
000001a0: 3efb a63d 6055 b23b 89e8 d6bd 5c45 ea3c
000001b0: f7ed 213e a18c b0bd bf34 16be f565 a53d
000001c0: 22d1 cebd d297 173e ed80 12bd 384e ebbd
000001d0: 0476 20be b7a4 9bbd 30a9 283e 3e72 833d
000001e0: 64a5 d73d 4e0a 36be 49aa f93d 26e9 d8bc
000001f0: b617 8b3d 28ee f93d bb5c 57bd 8549 103e

lstm.weight_ih_l1 f4 [128, 32]
-0.0006678654 0.02811234 0.17155719 0.12357926 0.026479455 0.14199585 -0.004771408 -0.022018174
-0.00085617165 -0.08658591 -0.10430151 0.19638383 -0.08463067 -0.083677635 -0.121013865 0.0675061
-0.13568951 -0.008248478 -0.16551368 -0.088156715 -0.17592634 0.124884024 -0.0031657603 0.12533425
0.13742982 -0.15670408 0.010973391 0.036410555 0.15995833 0.047965866 -0.11300702 -0.13894625
-0.16696382 -0.0017464131 -0.108878836 0.09307187 0.07233947 -0.10946578 -0.06964307 0.013533001
0.11281077 -0.12712388 0.20594855 -0.0018408428 0.0014780085 -0.043087777 0.088875614 0.17360277
-0.010623601 0.1368 -0.032421112 0.11258074 0.13767405 0.060098585 0.11514302 0.122720405
0.14715666 0.14143519 0.15271783 0.13361247 0.18589586 0.04720657 0.13828205 0.17581998
-0.19024827 -0.11609614 0.1640804 -0.07503906 -0.043423876 0.02753805 -0.06072652 -0.13215862
-0.10754846 0.122794725 -0.0124644255 0.062229924 0.0015564109 -0.14071092 -0.10414679 -0.031926844
0.020401098 -0.09692498 0.04203461 -0.14910948 -0.042288348 -0.10271782 0.123911485 0.053581495
-0.17099872 0.015075454 -0.107072376 0.17317836 -0.0520808 0.16757262 -0.039790582 -0.06417846
-0.04409496 -0.078234725 0.120648876 -0.009031615 -0.024584504 -0.08833362 0.06271945 -0.1887648
0.028118363 -0.12508537 0.14133117 0.060256038 0.1562736 -0.06679831 -0.00045450238 0.21161187
-0.119896926 -0.074641 -0.14952347 0.066663235 -0.0034223842 -0.08630167 0.009284025 -0.09348562
0.13679218 0.032509305 0.118474804 -0.049958453 0.054527104 -0.015308908 0.0044123414 -0.06626758
-0.12753607 -0.03156908 0.16104458 -0.11490752 -0.1795286 -0.07080448 -0.046995994 0.10659065
-0.05186893 -0.016921533 0.20282538 -0.0013251356 0.023111906 0.13720854 0.057868935 0.057602
-0.17233053 0.04991256 0.1371005 0.12213529 -0.06652452 0.06523138 0.02938928 -0.0022222735
0.073923446 0.13136308 0.20638758 0.10285203 0.15952031 -0.022249667 -0.1501687 0.15119815
-0.0720889 -0.13838762 0.10918526 0.095935985 0.06743542 0.11835901 0.158302 -0.029144857
-0.18132943 -0.13027585 -0.07810775 -0.01185633 0.10168195 -0.14547108 0.058714107 0.13123317
-0.039572444 -0.16307193 0.007884593 -0.015807748 0.12527966 0.0019640818 -0.08641552 0.15626681
0.09102277 -0.050132923 0.08255146 0.1571799 0.14325869 -0.009818328 -0.1358197 -0.11073561
0.08817422 -0.028821217 -0.1044815 -0.036754634 0.044010688 -0.08256222 0.024557985 -0.034887776
-0.08425676 -0.17837583 0.09310017 -0.012432227 -0.0329745 -0.17043553 -0.08569576 0.03840464
-0.0071203564 0.09179881 0.116550855 -0.10649774 -0.020253863 0.13987108 0.11894971 -0.19668151
-0.17968898 0.010785686 0.058521874 -0.089264914 -0.107365854 0.13490933 -0.021842383 -0.041686643
-0.16544099 0.039719768 0.064421915 0.18704154 0.040249642 -0.040006813 -0.16916974 0.0968264
0.02776079 -0.16498803 -0.07432093 -0.026733438 0.09728985 -0.036492977 0.049761724 -0.070714794
0.14163205 0.045814794 -0.043067858 -0.029011222 -0.09415018 -0.07394022 0.114653975 -0.14011505
-0.1644671 -0.06653379 -0.031969808 0.18631251 -0.07552871 0.13130727 0.14895262 -0.13300447
00000000: b013 2fba da4b e63c b0ac 2f3e 2017 fd3d
00000010: 71eb d83c 5c67 113e 7959 9cbb 755f b4bc
00000020: b570 60ba f453 b1bd 089c d5bd d818 493e
00000030: d852 adbd 2e5f abbd 1ed6 f7bd a340 8a3d
00000040: 31f2 0abe a024 07bc 6b7c 29be 828b b4bd
00000050: 0926 34be 32c3 ff3d a578 4fbb 9f57 003e
00000060: 67ba 0c3e 0977 20be bdc9 333c 3c23 153d
00000070: 1ecc 233e db77 443d 3970 e7bd ed47 0ebe
00000080: 90f8 2abe e6e7 e4ba defb debd 779c be3d
00000090: b726 943d 982f e0bd 07a1 8ebd 85b9 5d3c
000000a0: 5509 e73d c32c 02be 2de4 523e 6f48 f1ba
000000b0: bcb9 c13a cf7c 30bd 6b04 b63d edc4 313e
000000c0: 9d0e 2ebc 4d15 0c3e 00cc 04bd bb90 e63d
000000d0: 6dfa 0c3e ef29 763d 1bd0 eb3d d654 fb3d
000000e0: 3cb0 163e 63d4 103e 1062 1c3e b5d1 083e
000000f0: 7c5b 3e3e ad5b 413d cf99 0d3e 270a 343e
00000100: 71d0 42be d0c3 edbd b104 283e 14ae 99bd
00000110: 3cdd 31bd 7a97 e13c 5fbc 78bd 9754 07be
00000120: 5e42 dcbd cd7b fb3d 9737 4cbc cee4 7e3d
00000130: 7c00 cc3a 8616 10be ea4a d5bd b9c5 02bd
00000140: 3420 a73c 9b80 c6bd 7c2c 2c3d 28b0 18be
00000150: 8c36 2dbd b85d d2bd 4ec5 fd3d 4578 5b3d
00000160: 4a1a 2fbe 09ff 763c c348 dbbd ab55 313e
00000170: ad52 55bd 2898 2b3e 73fb 22bd ff6f 83bd
00000180: eb9c 34bd 8739 a0bd c216 f73d 57f9 13bc
00000190: 7165 c9bc 42e8 b4bd 0e73 803d 8f4b 41be
000001a0: 7b58 e63c 6116 00be 1eb9 103e 09cf 763d
000001b0: 3006 203e 8dcd 88bd 474a eeb9 c8b0 583e
000001c0: 858c f5bd 61dd 98bd ae1c 19be bc86 883d
000001d0: 144a 60bb eebe b0bd 061c 183c 6475 bfbd
000001e0: 4013 0c3e 7a28 053d eba2 f23d 3ca1 4cbd
000001f0: d057 5f3d 37d2 7abc 6795 903b 4cb7 87bd
00000200: d198 02be 944e 01bd dfe8 243e a254 ebbd
00000210: 58d6 37be f001 91bd df7e 40bd 334c da3d
00000220: 8474 54bd 079f 8abc 75b1 4f3e 2cb0 adba
00000230: 2e55 bd3c 6580 0c3e fa07 6d3d 13f0 6b3d
00000240: 6a77 30be 1d71 4c3d 1364 0c3e 1122 fa3d
00000250: 023e 88bd 0898 853d cac1 f03c 90a3 11bb
00000260: 2d65 973d 0b84 063e 4457 533e 16a4 d23d
00000270: 4b59 233e ef44 b6bc d3c5 19be b0d3 1a3e
00000280: 58a3 93bd 7cb5 0dbe 869c df3d 167a c43d
00000290: 951b 8a3d 3566 f23d eb19 223e 32c1 eebc
000002a0: 6cae 39be 0867 05be f5f6 9fbd 0d41 42bc
000002b0: a03e d03d 5ff6 14be 347e 703d fd61 063e
000002c0: b716 22bd 54fc 26be 612e 013c 407f 81bc
000002d0: 5049 003e d3b7 003b 9ffa b0bd 6804 203e
000002e0: 256a ba3d 2e58 4dbd bd10 a93d c5f3 203e
000002f0: 68b2 123e 0ddd 20bc 5214 0bbe 5ac9 e2bd
00000300: af94 b43d 791a ecbc 66fa d5bd 078c 16bd
00000310: 8d44 343d 6216 a9bd d42d c93c 7ce6 0ebd
00000320: cf8e acbd 27a8 36be 4dab be3d 8ab0 4bbc
00000330: 4510 07bd a786 2ebe 4281 afbd 2f4e 1d3d
00000340: e151 e9bb 0401 bc3d 37b2 ee3d 7d1b dabd
00000350: 6eeb a5bc 5d3a 0f3e e89b f33d e166 49be
00000360: 6300 38be 72b6 303c a2b4 6f3d 86d0 b6bd
00000370: a1e2 dbbd ac25 0a3e ccee b2bc 9dbf 2abd
00000380: 5d69 29be 32b1 223d a3ef 833d d187 3f3e
00000390: cfdc 243d 2fde 23bd d53a 2dbe eb4c c63d
000003a0: 996a e33c 9ff2 28be 9235 98bd 1500 dbbc
000003b0: e73f c73d a979 15bd f3d2 4b3d ebd2 90bd
000003c0: fe07 113e 4ba8 3b3d ec67 30bd f1a8 edbc
000003d0: cfd1 c0bd f86d 97bd b4cf ea3d 527a 0fbe
000003e0: 106a 28be de42 88bd c6f2 02bd b5c8 3e3e
000003f0: ccae 9abd 6a75 063e 0987 183e 5332 08be

lstm.weight_hh_l1 f4 [128, 32]
-0.008312275 0.05892367 0.029260267 -0.16437866 0.082569756 0.13671513 0.15022199 -0.14313653
-0.099964 0.20434158 -0.15818998 0.19020604 0.15297796 0.12142593 -0.1317291 -0.01277486
0.12182322 -0.17992762 0.13210726 0.13572109 -0.15444148 -0.06472951 -0.08299264 -0.043742307
-0.16551891 0.03717014 -0.13492006 0.14927755 -0.21316399 -0.14048125 -0.122819014 0.10355677
-0.025545584 0.072844766 -0.1340447 0.07124942 -0.12570952 -0.108270615 0.025358604 -0.20288037
-0.08436965 0.014637078 -0.022246607 0.0039532566 0.12985918 -0.14755554 0.08671132 -0.103098884
0.1883793 0.03954138 -0.11544328 0.05716599 0.08896255 -0.10569826 -0.0044440567 -0.02974817
0.11189386 0.0047127656 0.028477704 -0.09849634 0.13305709 -0.03304693 -0.05139602 0.120835334
-0.12312697 0.06555876 -0.111822195 0.062141232 -0.04139245 -0.12862012 -0.01904059 -0.10885354
0.12177008 -0.101180956 0.063979656 -0.12364777 0.15358123 0.028184913 0.09673221 0.054102425
0.19260974 0.034712423 0.07105034 -0.10155569 -0.17661525 -0.036267273 0.1350774 0.15815471
0.028978778 0.12853125 -0.1447629 0.16007747 0.08177948 0.16636312 0.09124391 -0.03033734
0.13047372 0.08159543 0.038743123 -0.06190558 -0.07776092 -0.1151025 -0.05831875 -0.048910495
0.12988335 0.16596738 -0.007678295 0.16507278 -0.081502624 0.09224938 -0.07059074 -0.057078846
-0.011221877 -0.09970716 0.19603135 0.040279698 -0.19690247 0.09755145 0.2127318 0.082424834
0.06566706 0.19918399 0.116880395 0.093186006 0.05576639 0.2010738 -0.055397574 0.08813354
-0.12961158 -0.13809264 -0.06470684 0.028599713 0.12961935 0.008087046 0.20725124 -0.20886749
0.17738423 0.12029369 0.065163456 -0.13177778 -0.1445263 0.122595444 -0.07525276 0.067507565
-0.030171443 -0.095875844 0.19775736 0.011510929 -0.009539882 0.13319227 0.17367394 0.16827606
0.09234681 0.18711653 -0.17909373 -0.11095467 -0.03155001 -0.059815057 -0.08576217 0.18658474
0.03775207 -0.08995153 0.08399538 -0.0262972 0.1239127 0.014831836 0.12933686 0.03304679
-0.085781746 -0.103081055 -0.042630516 0.08171415 -0.18533352 0.05061901 0.09264888 0.047888994
-0.1352194 -0.0736862 -0.051766112 -0.062077917 -0.02829873 0.09488491 -0.02266377 0.07161957
0.09861876 0.14391299 -0.043296654 -0.15832503 -0.027488597 0.004781935 -0.17947412 -0.050658848
-0.043289248 0.11795353 0.09491123 0.11581359 -0.09398908 -0.027085647 0.16054384 -0.0114160115
0.030384073 0.07748032 -0.05291671 0.08301387 0.11844852 0.12979053 -0.029574271 0.20532356
-0.09109052 -0.103533484 -0.07753054 -0.13624811 -0.07798047 -0.07682842 0.03672229 0.12633568
-0.084181115 -0.01031332 -0.027379356 -0.15309979 0.14056724 0.10675818 -0.11551193 -0.117437474
-0.19127394 -0.09281658 -0.0006901089 0.08896385 -0.044500094 0.1928965 -0.0054126633 0.09602771
0.053276457 -0.09944385 -0.17408675 0.03509216 0.04599347 -0.044909675 0.047029354 0.14370306
0.11959321 -0.06905934 -0.05009679 0.04446752 -0.084546275 -0.18813838 0.17893744 -0.13994503
-0.11483832 0.1231264 -0.09275402 0.0476726 0.021755137 0.11168924 -0.10713203 0.15875535
00000000: 3530 08bc f259 713d 3ab3 ef3c e152 28be
00000010: 551a a93d 0dff 0b3e cbd3 193e 6292 12be
00000020: edb9 ccbd eb3e 513e 8efc 21be 5fc5 423e
00000030: 41a6 1c3e 28ae f83d fee3 06be a54d 51bc
00000040: 747e f93d f23e 38be 2047 073e 78fa 0a3e
00000050: e825 1ebe e890 84bd 0cf8 a9bd 222b 33bd
00000060: ca7d 29be b73f 183d 7c28 0abe 37dc 183e
00000070: a947 5abe 51da 0fbe 8988 fbbd 9215 d43d
00000080: f944 d1bc a32f 953d 0443 09be 37eb 913d
00000090: ffb9 00be fcbc ddbd d9bc cf3c dfbf 4fbe
000000a0: ffc9 acbd 5bd0 6f3c 843e b6bc 528a 813b
000000b0: cef9 043e cd18 17be b495 b13d 8225 d3bd
000000c0: 81e6 403e 24f6 213d 876d ecbd e326 6a3d
000000d0: ff31 b63d 5478 d8bd 739f 91bb 6fb2 f3bc
000000e0: 9c28 e53d 8b6d 9a3b 134a e93c 73b8 c9bd
000000f0: 1e40 083e 385c 07bd a284 52bd 8478 f73d
00000100: fe29 fcbd ac43 863d 0903 e5bd ce87 7e3d
00000110: 218b 29bd feb4 03be 03fb 9bbc 9bee debd
00000120: 9762 f93d f637 cfbd c407 833d 0b3b fdbd
00000130: 6644 1d3e 0ce4 e63c 891b c63d 819a 5d3d
00000140: 7d3b 453e 9d2e 0e3d d782 913d 6efc cfbd
00000150: a1da 34be fe8c 14bd bb51 0a3e 4ff3 213e
00000160: e764 ed3c b29d 033e ba3c 14be 59eb 233e
00000170: 007c a73d 185b 2a3e 16de ba3d 0386 f8bc
00000180: e79a 053e 811b a73d 1cb1 1e3d b590 7dbd
00000190: 1e41 9fbd dcba ebbd a4df 6ebd 5f56 48bd
000001a0: 2400 053e 5af3 293e 359a fbbb d708 293e
000001b0: d9ea a6bd 3eed bc3d e191 90bd 82cb 69bd
000001c0: f7db 37bc 4433 ccbd 71bc 483e 53fc 243d
000001d0: cda0 49be 0ec9 c73d 5dd6 593e 5ace a83d
000001e0: 747c 863d e3f6 4b3e fd5e ef3d 4ed8 be3d
000001f0: 4c6b 643d 4ae6 4d3e 91e8 62bd 5b7f b43d
00000200: e6b8 04be 2868 0dbe 0585 84bd f249 ea3c
00000210: efba 043e 887f 043c ab39 543e 5ce1 55be
00000220: 36a4 353e 8a5c f63d 6b74 853d c1f0 06be
00000230: b4fe 13be 5213 fb3d 1e1e 9abd 6841 8a3d
00000240: 1a2a f7bc 8e5a c4bd e880 4a3e 5698 3c3c
00000250: 2a4d 1cbc 8e63 083e 95d7 313e 8f50 2c3e
00000260: 5320 bd3d 7a9b 3f3e 5964 37be 343c e3bd
00000270: 953a 01bd a200 75bd 14a4 afbd 1210 3f3e
00000280: eaa1 1a3d 8238 b8bd c505 ac3d 3a6d d7bc
00000290: f1c5 fd3d 3b01 733c e270 043e 125c 073d
000002a0: 57ae afbd 291c d3bd 569d 2ebd c059 a73d
000002b0: 12c8 3dbe e155 4f3d b2be bd3d 4027 443d
000002c0: f476 0abe cae8 96bd b408 54bd 6a45 7ebd
000002d0: bdd2 e7bc 0553 c23d 5fa9 b9bc 48ad 923d
000002e0: a2f8 c93d ed5d 133e d557 31bd f51f 22be
000002f0: c42f e1bc c7b1 9c3b 10c8 37be a77f 4fbd
00000300: 1150 31bd 9f91 f13d d260 c23d ad2f ed3d
00000310: 597d c0bd b8e2 ddbc 9b65 243e 390a 3bbc
00000320: 05e8 f83c 01ae 9e3d 31bf 58bd 2d03 aa3d
00000330: 2395 f23d cfe7 043e be45 f2bc 5740 523e
00000340: ab8d babd 5d09 d4bd 55c8 9ebd a084 0bbe
00000350: 3ab4 9fbd 3858 9dbd 1d6a 163d 245e 013e
00000360: 2667 acbd 33f9 28bc ac4a e0bc 31c6 1cbe
00000370: dcf0 0f3e 08a4 da3d 8591 ecbd 0f83 f0bd
00000380: 51dd 43be 9e16 bebd 6de8 34ba ae32 b63d
00000390: bb45 36bd a986 453e b65c b1bb 2daa c43d
000003a0: 6a38 5a3d 38a9 cbbd cc43 32be ccbc 0f3d
000003b0: a663 3c3d 35f3 37bd daa1 403d e526 133e
000003c0: 49ed f43d fc6e 8dbd 4b32 4dbd 9323 363d
000003d0: 9926 adbd 59a7 40be 603b 373e c04d 0fbe
000003e0: 5a30 ebbd b229 fc3d d2f5 bdbd 5844 433d
000003f0: d437 b23c 54bd e43d 0a68 dbbd c390 223e

lstm.bias_ih_l1 f4 [128]
0.20192415 0.16116677 0.0079172505 0.027908595 -0.00909511 -0.0767634 -0.12025442 0.16421409
0.06307358 -0.087040246 0.020709617 0.026178794 0.09712762 -0.012855254 0.15262665 -0.12555595
0.1374623 -0.037391316 -0.13043502 -0.11918605 0.06271187 -0.03874434 -0.05879474 0.03993943
-0.024766574 -0.01470178 0.12882923 -0.04305891 -0.08024094 0.0150524285 0.1845477 -0.093565196
0.09948431 0.002933133 -0.12726222 -0.082734324 0.15014228 -0.1646408 -0.10952893 0.20375538
0.10565645 0.0750066 0.018837703 0.061802555 0.053435106 0.060642466 0.13203698 -0.06438756
-0.0008167154 0.1291462 -0.01642227 0.1667398 -0.15501857 0.031117348 -0.010596654 0.053378392
0.07876027 0.007869785 0.0031276953 0.010327884 -0.016069133 0.03863438 0.042348124 -0.04454554
-0.0108758705 -0.035251677 0.10393801 -0.15034096 -0.078972585 0.080870844 -0.09053942 0.09210846
0.049416047 -0.07074665 -0.04126544 0.013083837 -0.009996395 -0.042194687 -0.10239042 0.107489556
0.18000624 0.11122811 -0.083928324 -0.11359404 0.12978585 -0.013901623 -0.09303142 -0.02967102
0.036576647 0.010522602 0.12321303 -0.09823849 -0.06645446 0.12563002 0.19386232 -0.075177446
0.14441404 -0.022601673 -0.012278027 0.19147071 0.12954488 -0.105086625 0.08071434 -0.109333396
-0.07024696 0.049769416 0.0034199464 0.064494446 0.11440766 -0.084109806 0.17201124 -0.03624941
-0.09425118 0.1073935 -0.13009465 -0.04267285 -0.10211531 0.054850217 0.16868944 -0.09120333
0.17278427 0.052367166 -0.15316887 -0.12550001 -0.007764605 -0.040261105 -0.071490996 -0.058012392
00000000: 34c5 4e3e e708 253e 5bb7 013c 91a0 e43c
00000010: a803 15bc 2136 9dbd f347 f6bd bd27 283e
00000020: b92c 813d 2842 b2bd 37a7 a93c e974 d63c
00000030: d8ea c63d d89e 52bc 294a 1c3e bd91 00be
00000040: ebc2 0c3e a327 19bd c290 05be d117 f4bd
00000050: 156f 803d 63b2 1ebd c1d2 70bd 8797 233d
00000060: 45e3 cabc bcdf 70bc cfeb 033e 8a5e 30bd
00000070: 5d55 a4bd 769e 763c 13fa 3c3e 1c9f bfbd
00000080: 6ebe cb3d ce39 403b 0751 02be 9d70 a9bd
00000090: e6be 193e 9997 28be b450 e0bd 40a5 503e
000000a0: 6962 d83d 0f9d 993d 8751 9a3c ad24 7d3d
000000b0: c5de 5a3d 3c64 783d b434 073e a0dd 83bd
000000c0: d818 56ba e73e 043e ff87 86bc d7bd 2a3e
000000d0: 30bd 1ebe cfe9 fe3c 979d 2dbc 4da3 5a3d
000000e0: 104d a13d 45f0 003c 05fa 4c3b 4936 293c
000000f0: 6aa3 83bc 153f 1e3d 3a75 2d3d 6275 36bd
00000100: b530 32bc 1064 10bd 74dd d43d fbf2 19be
00000110: 61bc a1bd 9d9f a53d bb6c b9bd 5ca3 bc3d
00000120: 7b68 4a3d 9fe3 90bd f305 29bd 975d 563c
00000130: ebc7 23bc 56d4 2cbd 12b2 d1bd 7c23 dc3d
00000140: 8e53 383e 90cb e33d 9de2 abbd fea3 e8bd
00000150: 95e6 043e a2c3 63bc 4287 bebd a410 f3bc
00000160: 65d1 153d fe66 2c3c 1d57 fc3d 4331 c9bd
00000170: 4719 88bd 28a5 003e d883 463e a2f6 99bd
00000180: 46e1 133e 2527 b9bc c729 49bc e610 443e
00000190: 6aa7 043e a837 d7bd 8f4d a53d 30ea dfbd
000001a0: a3dd 8fbd 04db 4b3d 2e21 603b aa15 843d
000001b0: 904e ea3d c341 acbd b723 303e 437a 14bd
000001c0: c306 c1bd 20f1 db3d 8837 05be bac9 2ebd
000001d0: d521 d1bd 9faa 603d edbc 2c3e d0c8 babd
000001e0: 5cee 303e f47e 563d 4dd8 1cbe 1383 00be
000001f0: 3a6e febb d4e8 24bd df69 92bd 679e 6dbd

lstm.bias_hh_l1 f4 [128]
0.033530068 0.10202722 0.16515027 -0.11554934 0.05226734 0.031641256 0.14689393 0.04664238
0.09974697 -0.103934795 -0.12995242 -0.15731665 0.035463598 0.13150257 -0.117274866 0.20827478
0.20488763 0.12879176 0.1522272 0.18902515 -0.13935739 -0.17270188 0.1666757 -0.15601252
-0.02716621 0.14773765 -0.028344871 0.019385587 0.061180793 0.038664546 0.075074166 0.0849816
0.19797243 0.028905869 0.038781308 -0.05302122 -0.06802445 0.10483451 -0.13641985 0.1218494
-0.033217993 0.005102807 -0.11043365 0.08862069 -0.0524229 0.14012705 0.06495962 -0.012891324
-0.028633973 0.002275543 0.021632735 -0.027076669 0.16108538 -0.08194858 -0.048260286 -0.16655019
0.026777608 0.13946387 0.16952828 -0.07422389 0.05810432 0.056361068 0.10228375 -0.044388693
0.106742546 -0.075566486 0.14885503 0.036511894 0.1290918 -0.100015156 0.2012407 -0.12805875
-0.06284393 -0.11220613 -0.17487061 -0.12778386 0.11246488 -0.17310835 0.19033968 -0.12830167
0.1920112 -0.073100545 -0.10271677 0.06230645 0.028305275 0.10373362 0.18071501 -0.14535172
-0.06010295 0.008583201 -0.19640592 -0.011631416 -9.5979194e-05 0.09062536 0.028086336 0.14995605
-0.08961938 0.041138336 0.033800196 0.12449476 0.12989545 -0.11793706 -0.113415435 0.06819252
0.10326371 -0.036391497 0.21096937 -0.08761986 0.085605435 0.15047312 0.09323217 0.19323453
-0.07696898 -0.14278474 -0.048754595 -0.025626639 0.038509853 0.11513947 -0.012595628 0.08546564
-0.15691364 0.02350072 0.0105262855 -0.1328754 0.06461867 -0.036120795 -0.0004200152 0.09826398
00000000: d356 093d a6f3 d03d 271d 293e 22a5 ecbd
00000010: 4716 563d 439a 013d 5d6b 163e 150c 3f3d
00000020: 2448 cc3d c4db d4bd 3f12 05be 9e17 21be
00000030: 4742 113d 9ca8 063e ce2d f0bd fc45 553e
00000040: 10ce 513e fde1 033e 72e1 1b3e cf8f 413e
00000050: b4b3 0ebe c3d8 30be 09ad 2a3e bfc1 1fbe
00000060: ac8b debc 8a48 173e 8133 e8bc 86ce 9e3c
00000070: b698 7a3d b75e 1e3d 7cc0 993d d50a ae3d
00000080: 49b9 4a3e 00cc ec3c 26d9 1e3d c72c 59bd
00000090: 6750 8bbd 7ab3 d63d a5b1 0bbe 2e8c f93d
000000a0: 970f 08bd 7335 a73b 0a2b e2bd c47e b53d
000000b0: 65b9 56bd 777d 0f3e 8d09 853d 2236 53bc
000000c0: cb91 eabc 4721 153b 2237 b13c e4cf ddbc
000000d0: 91f3 243e a8d4 a7bd 94ac 45bd 228c 2abe
000000e0: b75c db3c 9ecf 0e3e d298 2d3e b202 98bd
000000f0: ccfe 6d3d ddda 663d 257a d13d ebd0 35bd
00000100: d69b da3d 9ac2 9abd 746d 183e 7f8d 153d
00000110: a430 043e bfd4 ccbd 0b12 4e3e d521 03be
00000120: 52b4 80bd 54cc e5bd 4811 33be c6d9 02be
00000130: fd53 e63d 5143 31be 68e8 423e 8361 03be
00000140: 969e 443e bdb5 95bd 2b5d d2bd 0c35 7f3d
00000150: 77e0 e73c 4b72 d43d 5b0d 393e 15d7 14be
00000160: 832e 76bd 8ea0 0c3c a21e 49be b291 3ebc
00000170: 7048 c9b8 ca99 b93d 5115 e63c 148e 193e
00000180: 5e8a b7bd ac80 283d 1372 0a3d 1cf7 fe3d
00000190: 5003 053e fc88 f1bd 5a46 e8bd 85a8 8b3d
000001a0: ed7b d33d 400f 15bd 5b08 583e 0b72 b3bd
000001b0: e751 af3d a015 1a3e 82f0 be3d 46df 453e
000001c0: eaa1 9dbd 2a36 12be e6b2 47bd f5ee d1bc
000001d0: 82bc 1d3d 3ece eb3d e55d 4ebc 9c08 af3d
000001e0: f8ad 20be 9584 c03c 7176 2c3c 7d10 08be
000001f0: cb56 843d 66f3 13bd 7c35 dcb9 a03e c93d
